…
    "**TODO**: Implement the `MultilayerGRU` class in the `hw3/charnn.py` module.\n",
    "\n",
    "Notes:\n",
    "- You'll need to handle input **batches** now.\n",
    "  The math is identical to the above, but all the tensors will have an extra batch\n",
    "  dimension as their first dimension.\n",
    "- Use the diagram above to help guide your implementation.\n",
    "  It will help you visualize what shapes to returns where, etc.\n"
   ]
  },
  {
   "cell_type": "code",
   "execution_count": 39,
   "metadata": {},
   "outputs": [
    {
     "name": "stdout",
     "output_type": "stream",
     "text": [
      "MultilayerGRU(\n",
      "  (z_xh_0): Linear(in_features=5, out_features=7, bias=True)\n",
      "  (z_hh_0): Linear(in_features=7, out_features=7, bias=False)\n",
      "  (z_sig_0): Sigmoid()\n",
      "  (r_xh_0): Linear(in_features=5, out_features=7, bias=True)\n",
      "  (r_hh_0): Linear(in_features=7, out_features=7, bias=False)\n",
      "  (r_sig_0): Sigmoid()\n",
      "  (g_xh_0): Linear(in_features=5, out_features=7, bias=True)\n",
      "  (g_hh_0): Linear(in_features=7, out_features=7, bias=False)\n",
      "  (g_tanh_0): Tanh()\n",
      "  (dropout_0): Dropout(p=0, inplace=False)\n",
      "  (z_xh_1): Linear(in_features=7, out_features=7, bias=True)\n",
      "  (z_hh_1): Linear(in_features=7, out_features=7, bias=False)\n",
      "  (z_sig_1): Sigmoid()\n",
      "  (r_xh_1): Linear(in_features=7, out_features=7, bias=True)\n",
      "  (r_hh_1): Linear(in_features=7, out_features=7, bias=False)\n",
      "  (r_sig_1): Sigmoid()\n",
      "  (g_xh_1): Linear(in_features=7, out_features=7, bias=True)\n",
      "  (g_hh_1): Linear(in_features=7, out_features=7, bias=False)\n",
      "  (g_tanh_1): Tanh()\n",
      "  (dropout_1): Dropout(p=0, inplace=False)\n",
      "  (z_xh_2): Linear(in_features=7, out_features=7, bias=True)\n",
      "  (z_hh_2): Linear(in_features=7, out_features=7, bias=False)\n",
      "  (z_sig_2): Sigmoid()\n",
      "  (r_xh_2): Linear(in_features=7, out_features=7, bias=True)\n",
      "  (r_hh_2): Linear(in_features=7, out_features=7, bias=False)\n",
      "  (r_sig_2): Sigmoid()\n",
      "  (g_xh_2): Linear(in_features=7, out_features=7, bias=True)\n",
      "  (g_hh_2): Linear(in_features=7, out_features=7, bias=False)\n",
      "  (g_tanh_2): Tanh()\n",
      "  (dropout_2): Dropout(p=0, inplace=False)\n",
      "  (out_layer): Linear(in_features=7, out_features=5, bias=True)\n",
      ")\n"
     ]
    }
   ],
   "source": [
    "# dan test the model init\n",
    "in_dim = 5\n",
    "h_dim = 7\n",
    "n_layers = 3\n",
    "model = charnn.MultilayerGRU(in_dim, h_dim, out_dim=in_dim, n_layers=n_layers).to(device)\n",
    "print(model)"
   ]
  },
  {
   "cell_type": "code",
   "execution_count": 40,
   "metadata": {},
   "outputs": [
…
, bias=True), Linear(in_features=7, out_features=7, bias=False), Sigmoid()], [Linear(in_features=7, out_features=7, bias=True), Linear(in_features=7, out_features=7, bias=False), Tanh()], Dropout(p=0, inplace=False)], Linear(in_features=7, out_features=5, bias=True)]\n"
     ]
    }
   ],
   "source": [
    "print(model.layer_params)"
   ]
  },
  {
   "cell_type": "code",
   "execution_count": 41,
   "metadata": {
    "pycharm": {
     "name": "#%%\n"
    }
   },
   "outputs": [
    {
     "name": "stdout",
     "output_type": "stream",
     "text": [
      "MultilayerGRU(\n",
      "  (z_xh_0): Linear(in_features=78, out_features=256, bias=True)\n",
      "  (z_hh_0): Linear(in_features=256, out_features=256, bias=False)\n",
      "  (z_sig_0): Sigmoid()\n",
      "  (r_xh_0): Linear(in_features=78, out_features=256, bias=True)\n",
      "  (r_hh_0): Linear(in_features=256, out_features=256, bias=False)\n",
      "  (r_sig_0): Sigmoid()\n",
      "  (g_xh_0): Linear(in_features=78, out_features=256, bias=True)\n",
      "  (g_hh_0): Linear(in_features=256, out_features=256, bias=False)\n",
      "  (g_tanh_0): Tanh()\n",
      "  (dropout_0): Dropout(p=0, inplace=False)\n",
      "  (z_xh_1): Linear(in_features=256, out_features=256, bias=True)\n",
      "  (z_hh_1): Linear(in_features=256, out_features=256, bias=False)\n",
      "  (z_sig_1): Sigmoid()\n",
      "  (r_xh_1): Linear(in_features=256, out_features=256, bias=True)\n",
      "  (r_hh_1): Linear(in_features=256, out_features=256, bias=False)\n",
      "  (r_sig_1): Sigmoid()\n",
      "  (g_xh_1): Linear(in_features=256, out_features=256, bias=True)\n",
      "  (g_hh_1): Linear(in_features=256, out_features=256, bias=False)\n",
      "  (g_tanh_1): Tanh()\n",
      "  (dropout_1): Dropout(p=0, inplace=False)\n",
      "  (z_xh_2): Linear(in_features=256, out_features=256, bias=True)\n",
      "  (z_hh_2): Linear(in_features=256, out_features=256, bias=False)\n",
      "  (z_sig_2): Sigmoid()\n",
      "  (r_xh_2): Linear(in_features=256, out_features=256, bias=True)\n",
      "  (r_hh_2): Linear(in_features=256, out_features=256, bias=False)\n",
      "  (r_sig_2): Sigmoid()\n",
      "  (g_xh_2): Linear(in_features=256, out_features=256, bias=True)\n",
      "  (g_hh_2): Linear(in_features=256, out_features=256, bias=False)\n",
      "  (g_tanh_2): Tanh()\n",
      "  (dropout_2): Dropout(p=0, inplace=False)\n",
      "  (out_layer): Linear(in_features=256, out_features=78, bias=True)\n",
      ")\n",
      "y.shape=torch.Size([32, 64, 78])\n",
      "h.shape=torch.Size([32, 3, 256])\n"
     ]
    }
   ],
   "source": [
    "in_dim = vocab_len\n",
    "h_dim = 256\n",
    "n_layers = 3\n",
    "model = charnn.MultilayerGRU(in_dim, h_dim, out_dim=in_dim, n_layers=n_layers)\n",
    "model = model.to(device)\n",
    "print(model)\n",
    "\n",
…
